…
/content/drive/Shareddrives/Nyquist_Latecki_Shared_Drive/data_imputation/clean/mvts_transformer/src/main.py --output_dir /content/experiments --comment 2024-07-29 --name SMPModel --records_file SMPModel.xls --data_dir /content/SMP --data_class csv --epochs 300 --lr 0.001 --optimizer RAdam --pattern TRAIN --val_pattern TEST --mean_mask_length 50 --pos_encoding learnable --d_model 128 --task imputation --change_output --batch_size 128 --data_window_len 350

Using device: cuda
Loading and preprocessing data ...
2880 nan values in /content/SMP/SMP_TEST.csv will be replaced by 0
272 samples may be used for training
9 samples will be used for validation
0 samples will be used for testing
Creating model ...
Model:
TSTransformerEncoder(
  (project_inp): Linear(in_features=16, out_features=128, bias=True)
  (pos_enc): LearnablePositionalEncoding(
    (dropout): Dropout(p=0.1, inplace=False)
  )
  (transformer_encoder): TransformerEncoder(
    (layers): ModuleList(
      (0): TransformerBatchNormEncoderLayer(
        (self_attn): MultiheadAttention(
          (out_proj): _LinearWithBias(in_features=128, out_features=128, bias=True)
        )
        (linear1): Linear(in_features=128, out_features=256, bias=True)
        (dropout): Dropout(p=0.1, inplace=False)
        (linear2): Linear(in_features=256, out_features=128, bias=True)
        (norm1): BatchNorm1d(128, eps=1e-05, momentum=0.1, affine=True, track_running_stats=True)
        (norm2): BatchNorm1d(128, eps=1e-05, momentum=0.1, affine=True, track_running_stats=True)
        (dropout1): Dropout(p=0.1, inplace=False)
        (dropout2): Dropout(p=0.1, inplace=False)
      )
      (1): TransformerBatchNormEncoderLayer(
        (self_attn): MultiheadAttention(
          (out_proj): _LinearWithBias(in_features=128, out_features=128, bias=True)
        )
        (linear1): Linear(in_features=128, out_features=256, bias=True)
        (dropout): Dropout(p=0.1, inplace=False)
        (linear2): Linear(in_features=256, out_features=128, bias=True)
        (norm1): BatchNorm1d(128, eps=1e-05, momentum=0.1, affine=True, track_running_stats=True)
        (norm2): BatchNorm1d(128, eps=1e-05, momentum=0.1, affine=True, track_running_stats=True)
        (dropout1): Dropout(p=0.1, inplace=False)
        (dropout2): Dropout(p=0.1, inplace=False)
      )
      (2): TransformerBatchNormEncoderLayer(
        (self_attn): MultiheadAttention(
          (out_proj): _LinearWithBias(in_features=128, out_features=128, bias=True)
        )
        (linear1): Linear(in_features=128, out_features=256, bias=True)
        (dropout): Dropout(p=0.1, inplace=False)
        (linear2): Linear(in_features=256, out_features=128, bias=True)
        (norm1): BatchNorm1d(128, eps=1e-05, momentum=0.1, affine=True, track_running_stats=True)
        (norm2): BatchNorm1d(128, eps=1e-05, momentum=0.1, affine=True, track_running_stats=True)
        (dropout1): Dropout(p=0.1, inplace=False)
        (dropout2): Dropout(p=0.1, inplace=False)
      )
    )
  )
  (output_layer): Linear(in_features=128, out_features=16, bias=True)
  (dropout1): Dropout(p=0.1, inplace=False)
)
Total number of parameters: 446480
Trainable parameters: 446480
Evaluating on validation set ...
Validation runtime: 0.0 hours, 0.0 minutes, 0.04455232620239258 seconds

Avg val. time: 0.0 hours, 0.0 minutes, 0.04455232620239258 seconds
Avg batch val. time: 0.04455232620239258 seconds
Avg sample val. time: 0.004950258466932509 seconds
…
